mllab2/linreg_manual_price.pth (torch, 5125 bytes, 1 tensors)

w f4 [810, 1]
00000000: f9eb 4d3b af52 de3a 7389 af3a 40c7 67b9
00000010: 38d1 1138 38a8 683f 1470 cbba 02f9 2d3a
00000020: 9f8f f1ba 3af2 6d38 2eab a53a 910f 9bbb
00000030: 9e21 5739 d1a8 9838 21a5 193a b199 ad38
00000040: 7fcf 88b8 1042 a43a 0595 f939 95bf d5b8
00000050: 0030 deb4 91c8 c1ba 07d0 8dbb 4b7f 363a
00000060: 986b 02b7 72ca a8ba fa33 4cb8 2735 8938
00000070: b8ed 6fb8 9f0a e5b8 5f16 ab38 c05c b537
00000080: 0036 5838 3b67 cdb8 681a 953a a015 9d3a
00000090: dccd 2f3b 4101 2e3b 38ea de39 d92b 41ba
000000a0: f0b0 8db8 a78e bbb8 c802 a7b8 4e35 88b9
000000b0: bbbc 39bb d801 3c38 5446 0eb8 4455 7cb8
000000c0: b299 3a38 1435 c4b7 2e3c b2b8 d57b b63a
000000d0: 0a53 50bb 1001 11b8 457f a2ba b392 ad3a
000000e0: ec44 a23a c3cd 8e38 f539 e63a d091 37b7
000000f0: f8e3 ec3a f64a 8f38 2475 a439 2234 10b8
00000100: 9622 ac38 a4da fdb7 e091 0cb8 7a88 76b8
00000110: 4861 02bb 6da2 763b 8292 1138 e456 7238
00000120: d8ce 4d37 9e1a 283a 626f 6138 1e99 4139
00000130: 8ff1 0eb9 f2f6 d0ba 1dbe 88b8 6e06 193a
00000140: 9184 97ba fcf6 5538 b79a cd39 93ef d1b8
00000150: 0711 7fba 56fe dbb8 81d3 893b dfbd 8bb8
00000160: 8601 6738 305b 34b7 e4b8 86b8 4289 5238
00000170: 3997 16bb c033 b0b6 111e d1b8 c082 493a
00000180: 6e72 ad3a 5c56 23bb 9875 ea37 72a9 1038
00000190: 18e7 8738 c0a7 fc36 7288 6938 bef8 d1ba
000001a0: 0b75 a43a e876 e1b8 b07f 4937 570b a8b8
000001b0: 98cb 2a38 2447 6fba b0cd 5d3b a484 5fba
000001c0: ca87 473b 1b92 9738 8d4c 51ba c0f9 76b6
000001d0: 2c60 dcb7 d2f4 83ba 2239 14bb 687b 64b7
000001e0: 1dae c5b8 f0f2 deba 906f dc3a 29ce e0b8
000001f0: d996 e9ba a6a8 e9ba 7bba 9bb8 dc48 2b3b
00000200: ea4b afb8 b8d4 2abb 82c1 7eb8 6b54 98bb
00000210: 7474 c0b8 d9da 3a3b 6d09 dcba 219d d0b8
00000220: 3442 dcb7 8335 913a daed 1b38 d2f8 fdb9
00000230: 28c5 d63a 5875 4cb7 c3a3 e5b8 7526 d7ba
00000240: 12d7 34ba 536f 20bb 85f5 f4b8 ee11 53b8
00000250: 1a86 a6bb c73f 503b 6209 70bb 2620 153b
00000260: 2e78 26b8 38ff 65b7 8639 da39 a8b5 2b38
00000270: 1db1 8e38 9eab 76b8 5cd5 a0b8 2164 2a39
00000280: 4345 bfbb 53db 49ba d074 a5b7 6dcd d339
00000290: 766c aa38 a7d8 8ab8 c894 8c37 eebf 8739
000002a0: ba12 1938 a2e0 1d3a eadf 5b38 9fbc 4f3a
000002b0: c63c 04bb 5af6 51ba 087e 8638 dc71 acb8
000002c0: 7c82 04ba b092 ccb7 bc8a 92ba 4966 8a3b
000002d0: e6f3 4139 0d01 af3a cef6 c0b8 dbf6 19ba
000002e0: c97c c4bb 4101 e2b9 c424 ef3a edd4 ae3a
000002f0: 4c2d d6b7 c814 5538 dda5 edba 35bb adb8
00000300: b89c 2bb8 ae96 15ba 889f afbb 8750 20bb
00000310: a61b 37b8 c4f1 63ba 9e82 0aba 5442 7dba
00000320: e4c7 4238 68e9 c33a 2660 47ba 10eb 5338
00000330: 50c8 353b 643e 6739 6e7a 753a 74a8 e1ba
00000340: 29c9 9938 ca1a 2e3b 7b27 8bba 1ace 9b3a
00000350: 74ed 9bba 06ff 4ab8 c90d c6b8 d263 f9b9
00000360: c0da e3ba 43f2 9fba 4f82 9338 dc63 f2b7
00000370: 4906 8fb8 78cb 6137 576f 133b eb74 85ba
00000380: 9047 083b 176c 8638 604f 59ba 9a8b a138
00000390: 14c0 d8b9 32a8 97ba ba7e 423b e0b9 74b7
000003a0: ba16 b139 ccdb 4ab8 d64c 313a 089b 663a
000003b0: 3793 7e3b fd9b 98b8 f0aa 8ab8 cc7d 503b
000003c0: 7772 793a 2029 2138 863c b1b8 cb76 deba
000003d0: 0cd2 9a38 d464 ad38 6f65 6a3b b5f4 8538
000003e0: a90b 8038 4d5b 16bb 5085 a536 861b 1938
000003f0: 394b a239 5667 7db8 8371 7a3b 6e1c 8b38
0.0031421168 0.0016961897 0.0013392403 -0.00022104103 3.4765544e-05 0.9088168 -0.0015521073 0.00066365313
-0.0018429643 5.6730794e-05 0.0012639516 -0.0047320803 0.00020516521 7.279369e-05 0.0005861093 8.27791e-05
-6.5236345e-05 0.0012531895 0.0004760401 -0.000101923164 -4.1385647e-07 -0.0014784505 -0.0043277773 0.0006961717
-7.773655e-06 -0.0012877716 -4.8685797e-05 6.5425695e-05 -5.7203433e-05 -0.00010921549 8.158082e-05 2.1620071e-05
5.1548705e-05 -9.79439e-05 0.0011375668 0.0011984594 0.0026825583 0.002655104 0.00042517646 -0.00073688995
-6.756361e-05 -8.943426e-05 -7.9636986e-05 -0.00025979656 -0.0028341252 4.482441e-05 -3.3920936e-05 -6.016089e-05
4.4488996e-05 -2.3389737e-05 -8.498911e-05 0.0013922403 -0.0031787776 -3.4571683e-05 -0.0012397548 0.0013242572
0.001238016 6.809414e-05 0.001756488 -1.09416e-05 0.0018073311 6.832734e-05 0.00031367794 -3.4380828e-05
8.208041e-05 -3.0261763e-05 -3.3514458e-05 -5.8778074e-05 -0.001989441 0.0037633434 3.470714e-05 5.777822e-05
1.2267112e-05 0.00064126577 5.3747914e-05 0.00018462955 -0.00013632163 -0.0015942736 -6.520397e-05 0.0005837445
-0.0011559894 5.101318e-05 0.00039215919 -0.00010010521 -0.00097300153 -0.000104901075 0.0042061214 -6.663403e-05
5.507611e-05 -1.0750067e-05 -6.4240565e-05 5.0195733e-05 -0.002297832 -5.2512332e-06 -9.971497e-05 0.0007687025
0.0013232955 -0.00249233 2.7949733e-05 3.4490084e-05 6.480346e-05 7.529714e-06 5.5678604e-05 -0.0016019566
0.0012547089 -0.00010750984 1.2010263e-05 -8.0129765e-05 4.072077e-05 -0.0009127727 0.0033844523 -0.000852654
0.0030445927 7.227455e-05 -0.0007984124 -3.680223e-06 -2.6270827e-05 -0.0010067469 -0.0022617062 -1.3618592e-05
-9.426123e-05 -0.0017009657 0.0016817916 -0.00010719553 -0.0017821445 -0.001782675 -7.425711e-05 0.0026135957
-8.3587904e-05 -0.0026066732 -6.0738537e-05 -0.0046487353 -9.1769645e-05 0.002851179 -0.0016787477 -9.9474804e-05
-2.6256872e-05 0.001107857 3.7176396e-05 -0.00048441306 0.0016385661 -1.2186669e-05 -0.00010950074 -0.0016414659
-0.0006898503 -0.0024480417 -0.00011680558 -5.032302e-05 -0.005081904 0.0031776296 -0.0036626686 0.0022754758
-3.968941e-05 -1.3708886e-05 0.00041623058 4.0938758e-05 6.8040776e-05 -5.88108e-05 -7.669136e-05 0.00016249764
-0.005837114 -0.00077002234 -1.9723928e-05 0.0004039811 8.126434e-05 -6.6207074e-05 1.6758582e-05 0.00025892205
3.6495483e-05 0.00060225476 5.2422205e-05 0.000792453 -0.0020177825 -0.00080094265 6.413093e-05 -8.222807e-05
-0.0005054844 -2.4387002e-05 -0.0011180262 0.004223619 0.00018496774 0.0013351754 -9.2012444e-05 -0.0005873271
-0.005996321 -0.00043107013 0.001824521 0.0013338603 -2.5531881e-05 5.080251e-05 -0.0018131096 -8.284153e-05
-4.0915533e-05 -0.0005706352 -0.005359594 -0.002446206 -4.365635e-05 -0.00086953887 -0.00052837457 -0.0009661068
4.6439367e-05 0.001494688 -0.0007605575 5.052524e-05 0.0027737804 0.00022053119 0.0009364252 -0.0017216341
7.3330775e-05 0.002656626 -0.0010616624 0.0011886985 -0.0011896328 -4.8398062e-05 -9.4439434e-05 -0.00047567353
-0.0017383918 -0.0012202937 7.033778e-05 -2.8895149e-05 -6.819942e-05 1.3458419e-05 0.0022496784 -0.0010181939
0.0020794608 6.409751e-05 -0.0008289721 7.703081e-05 -0.0004134184 -0.0011570512 0.0029677586 -1.4586811e-05
0.00033777003 -4.8365255e-05 0.00067634636 0.0008796905 0.003884507 -7.27698e-05 -6.6121924e-05 0.0031813262
0.0009515653 3.8423692e-05 -8.451291e-05 -0.0016972659 7.3824165e-05 8.2680635e-05 0.0035766026 6.3875144e-05
6.1056875e-05 -0.0022942603 4.932903e-06 3.6503676e-05 0.00030955093 -6.041614e-05 0.003821463 6.633332e-05
